d2v_model/d2v_sin_128.pth (torch, 41655 bytes, 10 tensors)

fc1.weight f4 [64, 6]
0	0xbde75748	-0.112959445
1	0xbc932c12	-0.01796535
2	0xbb10ac35	-0.00220753
3	0x3b44d1a9	0.0030032194
4	0xbf7d7acd	-0.99015504
5	0x3e246d9f	0.16057442
6	0xbf8398c1	-1.0280992
7	0xbd486a39	-0.048929427
8	0x3bd47329	0.0064834547
9	0x3bc7f3ff	0.0061020846
10	0xbdd678b8	-0.10472244
11	0x3d591aeb	0.053004187
12	0x3db97ee5	0.09057406
13	0x3b04ee62	0.0020283689
14	0x3be3b9a8	0.006949622
15	0x3a2ddf73	0.0006632723
16	0xbccf9253	-0.025338328
17	0x3c9bb055	0.01900498
18	0xbcb740b4	-0.02236972
19	0x3e7d8d74	0.24760991
20	0xbe84f35f	-0.25966927
21	0xbaf7f244	-0.0018916805
22	0x3e7d2b4b	0.24723546
23	0x3e9386bd	0.28813735
24	0x3d9209f8	0.07130808
25	0x3ecd90dc	0.4014958
26	0x3f070e47	0.5275616
27	0xbc8b9feb	-0.017044028
28	0x3e668369	0.22511066
29	0x3b1ba34b	0.0023748453
30	0x3e511ee6	0.20421943
31	0x3d20afb7	0.039230075
32	0x3ccc35fb	0.024928084
33	0x3b4955cf	0.0030721312
34	0xbedaa91f	-0.42707154
35	0xbf0a6e07	-0.5407414
36	0xbe201182	-0.15631679
37	0x3c99e170	0.018784255
38	0xbca4c752	-0.020114575
39	0xbb0c9711	-0.0021452347
40	0x3f0b34d6	0.54377496
41	0x3dcdc262	0.10046841
42	0xbe5c671e	-0.21523711
43	0xbee4d5aa	-0.44694263
44	0x3cf61895	0.030041019
45	0x3c1cfc9e	0.009581713
46	0xbe86e9fd	-0.26350394
47	0x3e263457	0.16230904
48	0xbcc2d5a3	-0.02378351
49	0x3b134048	0.0022468735
50	0x3ab9fb8f	0.001418935
51	0xb99af8a7	-0.0002955843
52	0x3e07ec4c	0.13273734
53	0xbc4118fe	-0.011785744
54	0x3ef6b03b	0.48181328
55	0x3c9398fc	0.018017285
56	0x3c1305bd	0.008973536
57	0xba34fe7a	-0.0006904375
58	0xbeb3edd3	-0.35142383
59	0xbd957c19	-0.072990604
60	0xbf19a4c8	-0.6001706
61	0xbc8ba172	-0.017044757
62	0xbb22d5a3	-0.0024846576
63	0x3b397040	0.0028295666
64	0x3d18bbc8	0.037288457
65	0xbbb1af40	-0.0054225028
66	0x3f214241	0.6299172
67	0x3d9847c4	0.07435563
68	0xbe26bc53	-0.16282777
69	0xbba6abe0	-0.005086407
70	0x3f1bfd03	0.6093294
71	0x3e2ef23f	0.17084597
72	0xbe3507ca	-0.17678753
73	0xbc3853bc	-0.011250433
74	0x3bae9290	0.00532753
75	0xbb30c7e2	-0.0026974608
76	0x3f77ed91	0.9684687
77	0x3e1daaf6	0.15397248
78	0xbea57010	-0.3231206
79	0x3c929a10	0.017895728
80	0x3c4a121f	0.012333422
81	0x3b7a6c7f	0.0038211641
82	0x3d64fd2c	0.055905506
83	0xbecbc1ee	-0.39796394
84	0x3ecb90a0	0.39758778
85	0xbebdef8a	-0.37096816
86	0x3e3b2e07	0.18279277
87	0xbb6bf090	-0.003600154
88	0x3e292d76	0.16521248
89	0xbd26cd48	-0.040723115
90	0xbd8aa8eb	-0.067705
91	0x3c0cdf06	0.008598095
92	0x3a4c1f35	0.00077866326
93	0x3af23592	0.00184791
94	0xbdeaf6ac	-0.1147283
95	0x3bf881cf	0.0075838338
96	0x3c170949	0.009218522
97	0x3b02ef94	0.0019979225
98	0xbb3a924a	-0.0028468543
99	0xbaa4af18	-0.0012564389
100	0x3ea2b0de	0.31775564
101	0xbc68ec72	-0.014216529
102	0xbe124c7f	-0.14286993
103	0x3b73adb2	0.0037182388
104	0x3b44a0f4	0.0030003162
105	0x3a210906	0.0006143007
106	0x3f06a225	0.5259116
107	0xbe84e9fa	-0.2595976
108	0xbe40dc91	-0.1883414
109	0x3df28718	0.11842173
110	0xbe83be78	-0.25731254
111	0x3b9dfa48	0.0048210956
112	0x3e5dd2f5	0.21662505
113	0xbec75d6f	-0.38938472
114	0xbeae44c2	-0.34036833
115	0x3efb20b2	0.49048382
116	0x3eaa2516	0.3323142
117	0xbc543abc	-0.0129534565
118	0x3e3b8eee	0.18316242
119	0x3e40889a	0.1880211
120	0xbf1d599f	-0.61464876
121	0x3d4664d2	0.048435993
122	0xbd61c06c	-0.05511515
123	0xba982767	-0.0011608423
124	0x3ecd6dfd	0.40122977
125	0x3f06d20a	0.52664244
126	0x3d293eba	0.041319586
127	0xbce67325	-0.028131077
128	0xbc0f4ba9	-0.008746066
129	0xb936531f	-0.00017387838
130	0xbe9f1500	-0.3107071
131	0x3e5ce094	0.21570045
132	0x3d97bdd3	0.07409253
133	0x3a372ce9	0.0006987588
134	0x3a824f98	0.0009941934
135	0x3a9ded36	0.0012048844
136	0x3d9e3cec	0.07726464
137	0xba7cee34	-0.0009648532
138	0xbd0084a3	-0.031376492
139	0x3b087625	0.0020822373
140	0xbaf2e51d	-0.0018531416
141	0xba082a78	-0.00051943166
142	0x3d8aba11	0.067737706
143	0x3d600ae3	0.054697882
144	0xbac98271	-0.0015373958
145	0xbbaab3c4	-0.005209418
146	0xb9e13c71	-0.00042960377
147	0xba9194fd	-0.0011107024
148	0x3e142f78	0.14471233
149	0x3d703b0e	0.05865007
150	0x3ddb1259	0.10696859
151	0xbed9f95d	-0.42573062
152	0xbd5c4b25	-0.0537826
153	0x3b9d3c46	0.004798445
154	0x3c4017b5	0.011724402
155	0x3e88e848	0.26739717
156	0x3e123065	0.14276274
157	0xbc845a1b	-0.016156247
158	0x3e89a26d	0.26881734
159	0xbbaec436	-0.0053334488
160	0x3e1c9650	0.15291715
161	0xbd7bdb31	-0.061488334
162	0xbdf6ea17	-0.12056368
163	0x3bbdb4d0	0.005789377
164	0xbc02791a	-0.007963443
165	0x3a7ed04d	0.000972037
166	0x3e0c4cbc	0.13701147
167	0xbd30e7b3	-0.043189716
168	0xbe79c27d	-0.24390598
169	0xbc819982	-0.015820269
170	0xbc6a971d	-0.014318255
171	0x3b63cee8	0.0034760777
172	0xbf645a5d	-0.89200383
173	0x3dd1e740	0.102491856
174	0xbecbfdb1	-0.3984199
175	0x3c226fe4	0.009914372
176	0x3c340dcb	0.010989617
177	0x3b8a7c6d	0.0042262585
178	0x3e1aeb78	0.15128887
179	0xbec96c7e	-0.39340585
180	0x3e191229	0.14948334
181	0xbe79ab95	-0.2438186
182	0x3e7cb25b	0.24677412
183	0xba5be160	-0.00083877705
184	0xbdc6326e	-0.096775874
185	0x3e14a924	0.14517647
186	0xbe030307	-0.12794124
187	0x3e2d4352	0.16920212
188	0x3f31f663	0.6951658
189	0xbc105721	-0.008809836
190	0xbccef302	-0.02526236
191	0x3e2cf2f4	0.16889554
192	0xbc71ac14	-0.014750499
193	0x3ad7ed2a	0.0016473879
194	0x3b8e85a2	0.0043494264
195	0x3aa0df85	0.0012273645
196	0xbd9cc255	-0.076542534
197	0x3c3e947c	0.011632081
198	0x3c3f58cc	0.011678886
199	0xbb8784da	-0.00413571
200	0x3b46f617	0.0030359083
201	0xbacbdde0	-0.0015553795
202	0xbcce44a5	-0.025179217
203	0xbc43551d	-0.011922148
204	0xbd8ca221	-0.06866861
205	0xbd6f143a	-0.0583689
206	0x3e227aec	0.15867203
207	0xbab73ec1	-0.0013980494
208	0x3d8c7e1a	0.068599895
209	0x3e079fbc	0.13244528
210	0xbd327a7d	-0.043573845
211	0xb9f0ee4f	-0.0004595392
212	0x3b455ccf	0.0030115133
213	0x3b2074d3	0.0024483695
214	0xbe9d68dd	-0.30744067
215	0x3bf30796	0.007416676
216	0x3c46f382	0.012143018
217	0x3ba7d053	0.0051212697
218	0x3aa55505	0.0012613839
219	0x38d06666	9.937286e-05
220	0x3e0cb76e	0.13741848
221	0xbc7a8f84	-0.015293006
222	0x3db21c10	0.08696759
223	0xbcc6fbf2	-0.024290059
224	0x3d367ca7	0.04455247
225	0x3c03b0d1	0.008037762
226	0xbe0e3b68	-0.13889849
227	0xbf6d0bf1	-0.92596346
228	0x3d83db91	0.06438363
229	0x3e3ae19f	0.1825013
230	0x3e0bcace	0.13651583
231	0xbc170dc4	-0.009219591
232	0x3eedd526	0.46451682
233	0x3ed8f466	0.4237396
234	0xbe942221	-0.28932288
235	0xbe2b94f6	-0.16756043
236	0xbda62d33	-0.0811409
237	0x3bd511d5	0.00650237
238	0xbea49648	-0.32145905
239	0xbdf48229	-0.119388886
240	0x3b9ef483	0.0048509254
241	0xbb9392cc	-0.0045035835
242	0xba4736cc	-0.0007599413
243	0x3a3619e6	0.0006946608
244	0xbd9729a5	-0.0738099
245	0x39aba5a5	0.00032739076
246	0xbd268a24	-0.040659085
247	0x3c13d6f0	0.009023413
248	0x3c3fe7b1	0.011712954
249	0xbb409a72	-0.0029388932
250	0x3f94d27d	1.1626736
251	0xbd98edfb	-0.07467266
252	0xbc9f957f	-0.019480465
253	0xb9c31172	-0.00037206296
254	0xbb1024d6	-0.0021994612
255	0x3a34736b	0.00068836537

fc1.bias f4 [64]
0	0xbf1ac0d3	-0.60450476
1	0x3cfcf010	0.03087619
2	0x3e050234	0.12989122
3	0x3d6631c6	0.05619981
4	0x3ef2f587	0.47452947
5	0xbec3c207	-0.3823397
6	0x3ecf8fb7	0.40539333
7	0xbf7435d3	-0.9539463
8	0x3dbc3236	0.091892645
9	0xbe59d763	-0.2127357
10	0x3e885606	0.2662813
11	0xbe319e0f	-0.17345451
12	0xbd4e2322	-0.050326474
13	0xbe2ce595	-0.16884454
14	0x3e6c472f	0.2307403
15	0xbed33678	-0.41252494
16	0xbdb2e91c	-0.08735868
17	0xbcc9b8e9	-0.024624305
18	0x3e3338ae	0.1750209
19	0x3ea65e6a	0.32493907
20	0xbcb7468c	-0.022372507
21	0x3eef4d2d	0.46738568
22	0xbe2922e6	-0.16517219
23	0xbec10a38	-0.3770311
24	0xbdb9cbe0	-0.09072089
25	0xbe2cd1c2	-0.16876891
26	0x3ebdc9c1	0.3706799
27	0x3c2a36b1	0.010389016
28	0xbe3d80be	-0.18506142
29	0xbec65d3f	-0.38743016
30	0xbeb47e87	-0.35252783
31	0xbee767ff	-0.4519653
32	0xbeb9c43a	-0.3628252
33	0x3d417087	0.047226455
34	0xbf4066a9	-0.75156647
35	0xbe0a055c	-0.13478607
36	0xbe836fa1	-0.25671104
37	0xbf1892cc	-0.59598994
38	0x3e2b2e88	0.16716969
39	0x3e3aea1e	0.18253371
40	0xbf0a84a9	-0.54108673
41	0xbd971f09	-0.07378966
42	0xbf1819be	-0.5941428
43	0xbe8ccc80	-0.2749977
44	0xbe8da167	-0.27662203
45	0xbd8fed20	-0.0702765
46	0xbf1fa47d	-0.62360364
47	0xbeb3d104	-0.35120404
48	0xbe6d08f6	-0.2314795
49	0x3f3ad07a	0.7297436
50	0x3e920114	0.28516448
51	0x3d72f265	0.059313197
52	0xbe2d301d	-0.16912885
53	0x3f67c121	0.90529066
54	0x3d318328	0.04333797
55	0xbf030651	-0.51181513
56	0xbf239a2d	-0.6390713
57	0xbbb2fec4	-0.0054624993
58	0x3d5aef66	0.053450964
59	0x3ebf0c53	0.3731409
60	0x3dd6eea4	0.10494736
61	0xbdaf0b9e	-0.08547138
62	0x3f044384	0.5166552
63	0xbe109e64	-0.14122921

fc2.weight f4 [64, 6]
0	0xbd647db2	-0.055783935
1	0x3dec6c6d	0.11544118
2	0xbe41d2e5	-0.18928106
3	0xbe998344	-0.2998296
4	0x3d44bedd	0.048033584
5	0x3eafa9ad	0.3430914
6	0x3f0954de	0.5364512
7	0x3e8307c4	0.25591862
8	0x3df9c7d1	0.12196315
9	0xbced92c1	-0.029000642
10	0x3eac5c30	0.33664083
11	0x3d3abeab	0.04559199
12	0x3f516cea	0.81806815
13	0xbe494758	-0.19656122
14	0xbe22e7a9	-0.15908684
15	0x3ed99e0f	0.42503402
16	0x3ee292cb	0.4425262
17	0x3eadc496	0.33939046
18	0x3f03aa2e	0.5143155
19	0xbd045d9c	-0.032315835
20	0xbdaf1111	-0.08548177
21	0x3d07ceda	0.033156253
22	0xbc99ae46	-0.018759858
23	0x3f123926	0.5711845
24	0x3ed88611	0.42289785
25	0x3e2ae20b	0.16687791
26	0x3ecae8cc	0.39630735
27	0x3ef363b5	0.47537008
28	0x3eed9fb3	0.46410903
29	0x3f3d9011	0.7404795
30	0xbed2b40d	-0.41152993
31	0xbee10e88	-0.439564
32	0x3eabca70	0.33552885
33	0xbe509ecd	-0.20373078
34	0x3e3cb4da	0.18428364
35	0xbe958773	-0.29204902
36	0x3f1255d3	0.5716221
37	0x3f8b8b9d	1.0901982
38	0x3f84af8e	1.0366075
39	0x3f68eb4f	0.9098405
40	0x3f7dcf76	0.99144685
41	0x3f8a1b8a	1.0789654
42	0xbe9f8dbc	-0.31162822
43	0xbe0d512a	-0.13800493
44	0x3e9d9aaa	0.30782062
45	0x3d1ec8a9	0.038765583
46	0x3e8a5d38	0.27024245
47	0x3ee7bc03	0.4526063
48	0xbec3486e	-0.38141197
49	0xbf165cfc	-0.5873563
50	0xbf160925	-0.58607703
51	0xbe7ec097	-0.24878155
52	0xbeaee3a8	-0.34158063
53	0xbdb4d423	-0.08829524
54	0x3f0c2ff8	0.54760695
55	0xbbf96651	-0.007611074
56	0xbf1c209c	-0.6098726
57	0xbda52aaf	-0.08064782
58	0xbd718e1b	-0.058973413
59	0xbe701a58	-0.2344755
60	0x3e9d7811	0.30755666
61	0x3ec6e351	0.38845304
62	0x3f45bfe3	0.7724592
63	0xbcb2750d	-0.02178433
64	0xbe2db016	-0.16961703
65	0x3f1324e0	0.5747814
66	0x3f6ac3fb	0.9170529
67	0x3de3cc68	0.11122972
68	0x3e1408d4	0.14456493
69	0x3c28a508	0.010293253
70	0x3ef346a7	0.4751484
71	0x3ea1ed57	0.31626388
72	0x3f527fef	0.8222646
73	0x3ee90c61	0.45517257
74	0x3f1e6a72	0.6188117
75	0x3eba6c91	0.36410955
76	0x3c97c833	0.01852808
77	0xbde5a667	-0.11213379
78	0x3ec38974	0.38190806
79	0x3ea6fd4c	0.32615125
80	0x3decb493	0.11557879
81	0xbe4da2fb	-0.20081703
82	0x3ebf9a12	0.37422234
83	0x3e26f264	0.16303402
84	0xbe95dc62	-0.292697
85	0xbeced636	-0.40397805
86	0xbf14b7fa	-0.58093226
87	0x3e27a715	0.1637233
88	0xbebdad30	-0.37046194
89	0xbe930363	-0.2871352
90	0xbf1b3b4a	-0.6063734
91	0xbf07dbf2	-0.53069985
92	0xbf74fed7	-0.95701355
93	0xbf0cefc4	-0.55053353
94	0xbf17a437	-0.59234947
95	0xbf6aa325	-0.9165519
96	0x3e4a3fed	0.19750948
97	0xbe83d664	-0.25749505
98	0xbf094122	-0.5361501
99	0xbdd14c25	-0.102196015
100	0x3d59375e	0.053031318
101	0xbf0670f4	-0.525161
102	0xbe5ff1da	-0.21869603
103	0xbd502b50	-0.050822556
104	0xbf024f49	-0.5090223
105	0x3cfa33ca	0.030542273
106	0x3df0e435	0.11762277
107	0xbec9c443	-0.39407548
108	0xbf0dedc4	-0.55440927
109	0xbf01e468	-0.50739145
110	0xbf224a15	-0.6339429
111	0xbf3203e8	-0.6953721
112	0xbf49ab50	-0.7877703
113	0xbd9f5a7c	-0.077809304
114	0x3e3f629d	0.18689962
115	0x3eea8ce9	0.4581063
116	0x3f411846	0.75427663
117	0x3f08de35	0.5346406
118	0x3f051b6c	0.5199497
119	0x3ef8173b	0.48455223
120	0x3da99872	0.0828103
121	0x3e228ce3	0.15874057
122	0x3e895a31	0.26826623
123	0x3e8c35d8	0.2738483
124	0x3e8f0c48	0.27939057
125	0x3ecdd336	0.40200204
126	0xbe79264c	-0.24331015
127	0xbef0db59	-0.4704235
128	0x3e9594b8	0.29215026
129	0xbe52992b	-0.20566241
130	0x3d9747d7	0.07386749
131	0x3ecc6628	0.3992169
132	0x3f784d40	0.96992874
133	0x3f56f14c	0.8396194
134	0x3ee6621a	0.4499672
135	0x3ed589bc	0.41706645
136	0x3f147beb	0.58001584
137	0x3e2edf75	0.1707743
138	0xbe982997	-0.2971923
139	0xbf047ab4	-0.5174973
140	0xbed2fdcd	-0.4120926
141	0xbf3cef40	-0.73802567
142	0xbefa95f8	-0.48942542
143	0xbf408955	-0.7520955
144	0xbee493b1	-0.4464393
145	0x3e9e48cd	0.30914918
146	0x3db8a06d	0.09014974
147	0x3e0deab2	0.1385906
148	0x3e99a6b7	0.30010006
149	0xbea5119e	-0.32240003
150	0xbe5652b5	-0.20929988
151	0xbf19c405	-0.6006473
152	0xbf34c2dd	-0.7060984
153	0xbf14e980	-0.5816879
154	0xbf341676	-0.7034677
155	0xbe52fefd	-0.20605083
156	0x3d7b4915	0.061348993
157	0xbeeb7b54	-0.4599253
158	0xbf0ef305	-0.5583957
159	0xbdacfe83	-0.08446982
160	0xbef3d2a5	-0.47621647
161	0x3e02c555	0.12770589
162	0x3f03238a	0.51226103
163	0x3edd3fb4	0.43212664
164	0x3ea3612c	0.31910074
165	0x3f1b7bf2	0.60736
166	0x3e011fb3	0.12609749
167	0x3f30aebd	0.6901663
168	0xbf1bcf1c	-0.608629
169	0xbf0462d0	-0.51713276
170	0xbed0dc71	-0.40793183
171	0xbd71c2ea	-0.059023775
172	0xbf09df1b	-0.53856057
173	0xbf086ac2	-0.532879
174	0x3d283c72	0.04107327
175	0x3e8bc49c	0.2729844
176	0xbe1ab064	-0.1510635
177	0xbceae17e	-0.028671976
178	0x3e5188c9	0.20462336
179	0xbe23649d	-0.1595635
180	0x3e105e88	0.14098561
181	0xbda9251b	-0.082590304
182	0xbe9b0acf	-0.30281684
183	0xbe717bf2	-0.23582438
184	0xbe734cfb	-0.23759834
185	0x3e1c4180	0.15259361
186	0x3e9170b7	0.28406307
187	0xbc50256a	-0.012704233
188	0xbec085f3	-0.37602195
189	0x3e929c7f	0.28635022
190	0x3e4da314	0.2008174
191	0xbc268f9e	-0.010166077
192	0x3eb5aae8	0.35481954
193	0xbeac1441	-0.33609203
194	0x3e9e365c	0.30900848
195	0x3dfafc80	0.12255192
196	0xbe21661b	-0.15761606
197	0x3e7c8b17	0.24662434
198	0x3e8ac3ad	0.27102414
199	0xbebed959	-0.37275198
200	0xbe92144c	-0.2853111
201	0xbe8612eb	-0.26186308
202	0x3d45ec2e	0.04832094
203	0xbe9e5af5	-0.3092877
204	0x3d9b300d	0.07577524
205	0xbd5d9a28	-0.054102093
206	0xbe8adfe7	-0.2712395
207	0xbef97bc9	-0.48727253
208	0x3ce9066b	0.028445443
209	0x3e97219a	0.29517823
210	0xbed1b61d	-0.40959254
211	0xbeecbade	-0.46236318
212	0xbde080cd	-0.10962067
213	0xbd718ccb	-0.05897216
214	0xbe8f1447	-0.27945158
215	0xbe549aaf	-0.20762132
216	0xbc8974e3	-0.016779369
217	0xbe83bcd5	-0.25730005
218	0xbb9999ca	-0.0046875225
219	0x3e273f37	0.16332708
220	0xbcf255dd	-0.029581958
221	0x3c33a422	0.010964425
222	0xbe7d017a	-0.24707595
223	0xbe2781d4	-0.16358119
224	0x3eff1b9d	0.49825755
225	0x3e23e303	0.16004567
226	0x3d84b794	0.06480327
227	0x3da09795	0.07841412
228	0x3d0ee19f	0.034883138
229	0xbeaf18f7	-0.34198734
230	0x3e7adb6e	0.24497768
231	0x3e816965	0.25275722
232	0x3de670c5	0.11251978
233	0x3e9f7adc	0.31148422
234	0x3e0cd098	0.13751447
235	0xbdd7afea	-0.105316
236	0x3df513c6	0.11966662
237	0xbbfb8d46	-0.007676753
238	0x3e9b42fa	0.30324537
239	0xbea5ba8d	-0.3236889
240	0x3f0e15f2	0.55502236
241	0x3da34418	0.07971972
242	0x3eb41355	0.35171
243	0x3e7e7924	0.24850899
244	0x3ebf66ee	0.37383217
245	0x3e8e787d	0.278263
246	0xbea30d53	-0.31846103
247	0xbf07190a	-0.5277258
248	0xbeb64ead	-0.356069
249	0x3d8dd750	0.06925833
250	0xbe632051	-0.22180296
251	0xbe66b446	-0.22529706
252	0x3e2f7943	0.17136101
253	0x3eeed4db	0.4664677
254	0x3e8f05cc	0.2793411
255	0xbe30d7e8	-0.17269862

fc2.bias f4 [64]
0	0x3eacf382	0.33779532
1	0x3e16caad	0.14725752
2	0x3f2ec6f8	0.6827235
3	0x3edc1391	0.42983678
4	0x3e8ac23b	0.2710131
5	0x3d059e67	0.032621767
6	0x3f725c8e	0.9467248
7	0x3d155aec	0.036463663
8	0xbcee1abc	-0.029065482
9	0x3dff703b	0.12472578
10	0x3ed5a4e0	0.41727352
11	0x3f26766b	0.6502444
12	0x3debebd5	0.11519591
13	0x3d7bdf74	0.0614924
14	0xbe101895	-0.14071877
15	0xbf4227e3	-0.7584211
16	0xbf1782e2	-0.59184086
17	0xbd86366c	-0.06553349
18	0xbf026740	-0.50938797
19	0x3f94e471	1.1632215
20	0x3ec22aba	0.37923223
21	0xbdb85991	-0.090014584
22	0x3f3b75e7	0.7322678
23	0xbf0a2801	-0.5396729
24	0xbe21d795	-0.15804894
25	0xbeed9995	-0.46406236
26	0x3e3619b6	0.17783245
27	0x3ef1e72b	0.4724668
28	0x3d667231	0.056261245
29	0xbbf158c1	-0.0073653166
30	0xbed1efc4	-0.4100324
31	0xbea21af7	-0.31661198
32	0x3e047707	0.1293603
33	0x3be0ce35	0.0068605193
34	0xbe1a0f27	-0.15044843
35	0xbcaf8670	-0.02142641
36	0x3ce5b503	0.028040415
37	0x3e4e79c6	0.2016364
38	0xbec10c28	-0.37704587
39	0xbe94f62b	-0.2909406
40	0x3e92cafc	0.2867049
41	0xbe1b202e	-0.15148994
42	0x3e74569b	0.23861162
43	0xbd817484	-0.06321052
44	0xbd253b23	-0.0403396
45	0x3ed7f11a	0.42176133
46	0x3e7ba825	0.24575861
47	0xbde66e09	-0.11251456
48	0xbf5354d4	-0.8255131
49	0xbf1c0a0f	-0.6095285
50	0xbefa9398	-0.4894073
51	0xbdbf0fae	-0.093291625
52	0xbeca17ce	-0.39471287
53	0x3e813540	0.2523594
54	0xbe9a8714	-0.3018118
55	0xbe82839d	-0.25491038
56	0x3f0fea43	0.5621683
57	0xbeb42e40	-0.35191536
58	0xbeb54aa5	-0.35408512
59	0x3f58bbaf	0.8466138
60	0xbcca0885	-0.024662266
61	0xbf027ff5	-0.50976497
62	0xbe139287	-0.14411364
63	0xbe868984	-0.2627679

fc3.weight f4 [64, 128]
0	0x3d8af5dd	0.06785176
1	0xbdaab869	-0.08335955
2	0x3b4ef7fb	0.0031580913
3	0xbcc5b012	-0.024131808
4	0xbc3e0751	-0.011598424
5	0x3da1f27d	0.07907579
6	0xbc869c9c	-0.016432099
7	0xbceb1a7d	-0.028699154
8	0x3bfddffc	0.0077476483
9	0x3c7920a7	0.015205539
10	0xbb84cf3f	-0.004053026
11	0xbd1825d7	-0.037145462
12	0xbd5e0677	-0.054205384
13	0xbb14352a	-0.0022614696
14	0xbd8992af	-0.06717431
15	0x3bf0bee4	0.0073469747
16	0xbc858b49	-0.016301768
17	0xbce5095a	-0.02795856
18	0xbbf2718b	-0.0073987893
19	0x3cca50fc	0.02469682
20	0xbe01e026	-0.12683162
21	0x3c371fd6	0.011177024
22	0x3c819861	0.01581973
23	0xb9ca868a	-0.00038628682
24	0xbb23b843	-0.0024981655
25	0xbce98675	-0.028506497
26	0x3d00c203	0.031435024
27	0x3a71bdcf	0.0009221704
28	0x3d648e4a	0.05579976
29	0xbc75464a	-0.0149703715
30	0x3baed709	0.005335693
31	0xbd76bbd9	-0.06023774
32	0x39e92866	0.00044471322
33	0x3c105976	0.008810392
34	0xbc14f445	-0.0090914415
35	0x3c90eff6	0.017692547
36	0xbc88ce54	-0.016699947
37	0x3def1061	0.11673046
38	0xbd2ff427	-0.04295745
39	0x3c58bd67	0.013228751
40	0xbb7dba11	-0.003871564
41	0xbd9d3270	-0.07675636
42	0x3c657bef	0.014006599
43	0x3cc316ab	0.02381452
44	0xbb7468e5	-0.0037293967
45	0xbe35595c	-0.17709869
46	0xbd0480bc	-0.032349333
47	0x3db14a0a	0.086567
48	0xbbd8e5f8	-0.0066192113
49	0x3be22fe9	0.006902684
50	0xbc9d0d1f	-0.019171296
51	0x3c835e3e	0.01603615
52	0xbd5e1861	-0.05422247
53	0x3d48d6be	0.04903292
54	0xbbf2ce8d	-0.0074098767
55	0xbcbfa695	-0.023394862
56	0x3c9dcf73	0.019263959
57	0x3d64d2ad	0.05586498
58	0x3d7341b7	0.059388842
59	0xbc5a4857	-0.013322911
60	0x3b358e70	0.0027703308
61	0xbbc7557e	-0.0060831895
62	0x3cff5572	0.031168673
63	0xbc239e1c	-0.009986427
64	0xbca427ed	-0.02003857
65	0xbd192c10	-0.037395537
66	0xbc0ec54f	-0.008714034
67	0xbb98118b	-0.004640763
68	0xbbe3878b	-0.006943648
69	0x3c125ff7	0.008934013
70	0xbd080346	-0.033206247
71	0x3c1f2008	0.009712227
72	0xbbc28a39	-0.0059368876
73	0x3c9a197a	0.018810976
74	0xbb675b2c	-0.0035302145
75	0xbce7c7bd	-0.028293485
76	0xbbca30b5	-0.006170357
77	0x3d0187a3	0.031623494
78	0xba5d33b9	-0.0008438188
79	0xbd88276c	-0.06648144
80	0xbc87b4b1	-0.016565653
81	0x3bda1620	0.0066554695
82	0x3cb71bb1	0.022352071
83	0x3c015945	0.007894819
84	0xbcab5d15	-0.020918408
85	0x3ce6cf2e	0.028174963
86	0xbca462b0	-0.02006659
87	0x3d17bd3e	0.03704571
88	0xbb7dafca	-0.0038709515
89	0xbc9752c8	-0.01847209
90	0x3cb4c68e	0.022067335
91	0xbd1f221a	-0.03885088
92	0xbd21e0cd	-0.039521027
93	0xbcb5d9ac	-0.02219852
94	0x3b97c498	0.00463159
95	0xbd317640	-0.043325663
96	0x3cb6cf9f	0.022315798
97	0xbc715fc9	-0.01473231
98	0xbc4a232c	-0.012337487
99	0x3d3a8a86	0.045542262
100	0x3c3b19bf	0.011419713
101	0xbb11ea30	-0.002226483
102	0x3cef3bab	0.029203257
103	0xbc5d8090	-0.013519421
104	0x3b510149	0.0031891635
105	0x3d0ed9e9	0.034875784
106	0x3ca2648a	0.019823331
107	0xbd1020de	-0.035187595
108	0xbb69ae69	-0.0035656935
109	0xbd1496ed	-0.036276747
110	0x3b4a1177	0.0030833164
111	0x3c88fdf6	0.01672266
112	0x3b9ba21d	0.00474955
113	0x3c6c8482	0.014435889
114	0x3c7b665e	0.01534423
115	0x3b989c75	0.004657323
116	0xbcb9a05e	-0.022659477
117	0xbbe0e539	-0.006863263
118	0x3d311534	0.04323311
119	0xbca49e68	-0.020095065
120	0xbbeaa205	-0.0071604275
121	0xbc96d3a6	-0.018411469
122	0x3c84a420	0.016191542
123	0x3ce215eb	0.027598342
124	0xbe298f78	-0.16558635
125	0xbca54d8b	-0.020178577
126	0xbc8a5c77	-0.016889794
127	0x3b088b9f	0.0020835174
128	0x3d6de701	0.05808163
129	0xbd74f79c	-0.05980645
130	0x3c1f16a0	0.009709984
131	0xbd5831bd	-0.05278181
132	0xbc89908f	-0.016792564
133	0x3dc4efb6	0.09616034
134	0xbd07266a	-0.03299562
135	0xbd871331	-0.06595457
136	0x38a5a4f0	7.898535e-05
137	0x3cd4bb29	0.025968151
138	0xbbf0dad1	-0.0073503037
139	0xbd5398e3	-0.051659476
140	0xbd9905f4	-0.074718386
141	0x3c4fb9c3	0.012678566
142	0xba11ec3b	-0.0005566512
143	0xbb0932a9	-0.0020934737
144	0x3b882bd6	0.0041556163
145	0xbc4405e4	-0.011964295
146	0x39275eae	0.00015961632
147	0xbd12c7cb	-0.03583507
148	0xbdff5495	-0.124673046
149	0x3b5f9f83	0.0034122176
150	0xbc0f8b64	-0.008761261
151	0x3c420eac	0.011844318
152	0xbb00cde1	-0.0019653963
153	0xbcdcde4f	-0.026961474
154	0xbd171efa	-0.036894776
155	0xbc02bc50	-0.0079794675
156	0x3d360baa	0.044444717
157	0x3b3b8d0f	0.0028618013
158	0x3bf956e3	0.0076092347
159	0xbd43bc7e	-0.047787182
160	0xbb8dd3b0	-0.0043282136
161	0x3cecc631	0.028903099
162	0xbbbdc3e1	-0.005791173
163	0xbb34f4d4	-0.002761175
164	0xb98b0d91	-0.00026522254
165	0x3e3d5b47	0.18491851
166	0xbd8da5d9	-0.069163986
167	0x3c918a54	0.017766155
168	0xbbc52096	-0.0060158474
169	0xbd92e977	-0.07173436
170	0x3bcba25d	0.0062144236
171	0x3cd9fc5e	0.026609596
172	0x3ab7cb7c	0.0014022435
173	0xbd3789e8	-0.044809252
174	0xbbdfec43	-0.0068335845
175	0x3d6af7d7	0.057365265
176	0xbba25b64	-0.0049547423
177	0x3cf0cc3d	0.029394263
178	0x3d1d1841	0.03835321
179	0xbc6a7da9	-0.014312186
180	0xbd2bba31	-0.041925613
181	0x3b1ef60f	0.002425555
182	0xbcf69e17	-0.03010468
183	0x3b52db50	0.0032174177
184	0x3d478c9f	0.04871809
185	0x3d5d2e70	0.053999364
186	0x3c1f9344	0.009739701
187	0x3bdcac72	0.0067344243
188	0x3c4e09f5	0.012575616
189	0x3c362051	0.011116103
190	0x3cb7954c	0.022410057
191	0xbc822408	-0.015886322
192	0x3c561dcc	0.013068628
193	0x3d15a8d5	0.036537964
194	0x3cba665d	0.022753889
195	0x3b11d13d	0.002224996
196	0xbad0b821	-0.0015924015
197	0xbbefbd60	-0.0073162764
198	0x3d00b372	0.031421132
199	0xbd2c02cc	-0.041994855
200	0x3d2894c1	0.041157488
201	0xbcb59e36	-0.022170167
202	0x3c6665c9	0.014062353
203	0xbb698abd	-0.0035635673
204	0xbcb16f91	-0.021659644
205	0x3c6b8053	0.014373857
206	0xba2b0aa1	-0.0006524716
207	0x3d3eaecf	0.04655343
208	0x3d5a7052	0.053329773
209	0x3cdddbcf	0.027082352
210	0x3c4c2aba	0.012461359
211	0x3c01f088	0.007930882
212	0xbcab26c2	-0.020892505
213	0x3cb1dfd3	0.021713173
214	0x3b6a539b	0.00357554
215	0xbc1f1c0f	-0.0097112795
216	0xbca95fdc	-0.020675592
217	0xbd66e478	-0.05637023
218	0xbc5a4d03	-0.013324025
219	0xbc82a572	-0.015948031
220	0x3b63b079	0.0034742637
221	0xbd487422	-0.048938878
222	0x3cda97bc	0.02668368
223	0x3c5ef85c	0.013609018
224	0xbc02e8a6	-0.007990038
225	0xba9d5dd7	-0.0012006116
226	0xbbb81992	-0.0056182826
227	0xbd2b24d9	-0.041783188
228	0x39fd60be	0.00048328
229	0xbc10d558	-0.008839928
230	0xbba939a5	-0.0051643425
231	0xbc1c8015	-0.0095520215
232	0x3c499388	0.012303241
233	0x3c86970b	0.016429445
234	0x3cb7c1ab	0.022431215
235	0xbc2ca020	-0.010536224
236	0xbafdc819	-0.0019362002
237	0x3cb7294a	0.022358555
238	0x3cdce27c	0.026963465
239	0xbbcc130f	-0.006227858
240	0x3d1c646a	0.0381817
241	0x3ca888d0	0.02057305
242	0xbca59e25	-0.02021701
243	0x3b88de3b	0.0041768826
244	0x3b6b83d5	0.0035936732
245	0xbc874aee	-0.016515221
246	0xbcdf38d5	-0.02724878
247	0x3c96738d	0.018365646
248	0xbcc53434	-0.024072744
249	0x3b7a3fae	0.0038184929
250	0xbb2d3973	-0.0026431947
251	0x3c7464ea	0.014916638
252	0x3e3d9e6f	0.18517469
253	0xbd641f5b	-0.055693965
254	0xbd057e44	-0.03259112
255	0xbd436dce	-0.04771214

fc3.bias f4 [64]
0	0xbe3b1c25	-0.18272455
1	0xbe2522bb	-0.1612653
2	0xbd51cb8c	-0.051219508
3	0x3b3bd982	0.002866358
4	0x3f25135a	0.64482653
5	0xbdedc07d	-0.1160898
6	0x3e8d1784	0.27557003
7	0xbe01f339	-0.12690438
8	0xbe22a905	-0.15884788
9	0xbe6a5dd1	-0.2288735
10	0x3e3dd617	0.185387
11	0x3d37c6ae	0.04486721
12	0x3f262e50	0.6491442
13	0x3e3b1193	0.18268423
14	0xbd7250bf	-0.059159037
15	0x3f1d22c8	0.61381197
16	0x3de0c641	0.10975314
17	0x3e48162f	0.19539712
18	0xbe63c293	-0.22242193
19	0x3cc8b627	0.02450092
20	0xbefdb00c	-0.49548376
21	0xbe05ec69	-0.13078465
22	0x3d67e3a0	0.056613564
23	0xbe0fd5a8	-0.14046347
24	0x3c96ee3b	0.018424144
25	0xbf1a9651	-0.60385615
26	0xbf3577cf	-0.7088594
27	0xbf38c7ad	-0.7217968
28	0xbe9c08d8	-0.30475497
29	0x3b253043	0.0025205768
30	0xbd919da2	-0.07110144
31	0x3f1f69cf	0.62270826
32	0xbddcde98	-0.10784644
33	0xbe1a3212	-0.15058163
34	0xbe300954	-0.17191058
35	0xbd5f2847	-0.05448177
36	0x3e14d839	0.14535607
37	0xbf25f80d	-0.6483162
38	0x3e322651	0.17397429
39	0x3decff3a	0.11572118
40	0x3f14c2ed	0.58109933
41	0x3e0613af	0.13093446
42	0xbc80def3	-0.01573131
43	0x3f315324	0.6926749
44	0x3f2cd61f	0.6751422
45	0x3f441933	0.7660095
46	0xbf396ae2	-0.72428715
47	0x3d60f871	0.054924432
48	0x3db08bbf	0.086204045
49	0x3cc5ca2a	0.02414425
50	0xbf3da372	-0.7407752
51	0x3f1e8b56	0.6193136
52	0xbe49c871	-0.19705369
53	0xbdd2d771	-0.102949984
54	0xbe5f36f8	-0.21798313
55	0x3e92d5e4	0.2867881
56	0xbe364fe8	-0.1780392
57	0x3de9bab9	0.11412568
58	0x3e0706cd	0.13186188
59	0xbde66e13	-0.11251464
60	0x3ea73b00	0.326622
61	0xbcb176bf	-0.021663068
62	0x3e9c1931	0.3048797
63	0x3e59c9cb	0.21268384

fc4.weight f4 [6, 64]
0	0xbcafae00	-0.021445274
1	0xbd004ac4	-0.031321302
2	0x3c61230e	0.013741268
3	0xbcb7ef4e	-0.022452977
4	0xbd09715e	-0.03355538
5	0xbc5967fd	-0.013269422
6	0xbd4cf5df	-0.05003917
7	0x3db312a8	0.08743793
8	0xbdbee2a0	-0.09320569
9	0x3b441078	0.0029917043
10	0x3d91c2c3	0.07117226
11	0xbcdf6480	-0.027269602
12	0x3d1ba55c	0.037999496
13	0x3cfc4172	0.030792926
14	0x3d1861ab	0.03720252
15	0xbd278b14	-0.04090412
16	0x3dc94362	0.098273054
17	0xbd2cafcf	-0.04215985
18	0x3cd4915b	0.025948217
19	0x3d745431	0.059650604
20	0xbc98ccdb	-0.01865237
21	0xbd10703d	-0.03526329
22	0xbc01aff1	-0.007915483
23	0xbc7570c8	-0.014980502
24	0x3cf34cf2	0.029699776
25	0x3b8bb840	0.0042639077
26	0xbc8c7a1d	-0.017148072
27	0xbd57049b	-0.052494626
28	0xbd42cd05	-0.047558803
29	0x3d41ee52	0.04734642
30	0xbc89ba71	-0.016812535
31	0x3bfdd3a6	0.0077461777
32	0x3d2ddc52	0.042446442
33	0x3d8b95ac	0.06815657
34	0xbdbb523f	-0.091465466
35	0xbd715011	-0.058914248
36	0x3d895cd9	0.067071624
37	0x3d8a3596	0.06748502
38	0xbcc17c44	-0.023618825
39	0xbdae070d	-0.084974386
40	0x3d58dbf5	0.052944142
41	0x3b553791	0.003253434
42	0xbd2f1e65	-0.042753596
43	0x3d59f7fd	0.053215016
44	0xbb472a1c	-0.003039009
45	0x3cca1a63	0.024670785
46	0x3d564b5a	0.052317955
47	0xbcf7c326	-0.030244421
48	0xbba3ef12	-0.0050028646
49	0xbda87d9c	-0.08227083
50	0xbbe319ca	-0.0069305645
51	0x3bffc573	0.00780552
52	0x3c99acb7	0.018759115
53	0x3d5aca9b	0.053415876
54	0x3d3aa9ba	0.04557202
55	0xbd1a363d	-0.037649382
56	0x3d44ab04	0.048014656
57	0x3d27cb10	0.04096514
58	0xbccc627a	-0.024949301
59	0x3c5ee81a	0.013605142
60	0x3cd71a95	0.026257792
61	0x3da43168	0.08017236
62	0x3d703539	0.058644507
63	0x3d72363b	0.05913375
64	0xbd098c93	-0.033581328
65	0xbba91b50	-0.0051607266
66	0x3d21f459	0.03953967
67	0xbda2e664	-0.079541
68	0x3d0f3698	0.034964174
69	0xbbaf121f	-0.0053427364
70	0xbae1e2f0	-0.001723377
71	0xbc9fa4fa	-0.019487847
72	0xbca53475	-0.020166615
73	0xbcf7bd7c	-0.03024172
74	0x3d2f5d27	0.042813446
75	0xbd87aed7	-0.06625145
76	0xbcc1d8ed	-0.023663009
77	0x3c3e202d	0.011604351
78	0x3d6d15b8	0.05788204
79	0xbbe8b219	-0.007101309
80	0x3d85c265	0.065312184
81	0x3bdd02a6	0.0067447005
82	0x3dd709f9	0.10499949
83	0x3d2c79c4	0.042108312
84	0x3cecc09c	0.028900437
85	0x3cb6a682	0.022296194
86	0x3d5df4f1	0.054188672
87	0x3d65bc27	0.05608764
88	0xbdaa5095	-0.08316151
89	0x3d5b0b31	0.05347747
90	0xbc0c519d	-0.00856438
91	0xbd2432f6	-0.040087663
92	0xbc5a775a	-0.01333412
93	0xbd6fa81f	-0.058509942
94	0x3d05fe1a	0.032713033
95	0x3cc4d1bf	0.024025796
96	0x3dc36f02	0.095426574
97	0xbcff95e9	-0.031199412
98	0xbc8d6ded	-0.01726433
99	0x3d82d24f	0.063877694
100	0x3dc4b094	0.09603992
101	0xbbb3c4f8	-0.005486127
102	0xbc3ee601	-0.011651517
103	0x3d596306	0.05307295
104	0x3c4c22b8	0.0124594495
105	0xbd2ca0fb	-0.04214571
106	0xbc63a68d	-0.013894689
107	0xbb755950	-0.0037437268
108	0xbd121d44	-0.03567244
109	0xbb5c28c0	-0.0033593625
110	0x3c74d759	0.014943921
111	0xbe051cd7	-0.12999283
112	0xbc8960ac	-0.01676973
113	0xbcadfa87	-0.021237625
114	0x3cd10270	0.025513858
115	0x3d7014ef	0.058613714
116	0xbd78e1f6	-0.06076237
117	0x3cebf933	0.02880535
118	0x3d7ffc80	0.062496662
119	0x3c5e0721	0.013551504
120	0x3d7da061	0.061920527
121	0xbcb672f0	-0.022271603
122	0xbc4ccf55	-0.012500604
123	0xbc4f42c9	-0.0126502
124	0x3c3d99e0	0.011572331
125	0x3d4e1398	0.050311655
126	0xbb819bc3	-0.003955336
127	0x3d476ab0	0.04868573
128	0x3e07a439	0.1324624
129	0x3e07f34d	0.13276406
130	0x3e03db1f	0.12876557
131	0xbdce5105	-0.10074047
132	0xbdc61ee5	-0.096738614
133	0xbd54fefe	-0.052000992
134	0xbcc1c254	-0.023652233
135	0x3d0396a1	0.032126073
136	0xbd427ced	-0.04748242
137	0xbd325666	-0.043539427
138	0x3db60a2a	0.088886574
139	0x3d24f7be	0.040275328
140	0x3dc91891	0.09819139
141	0x3de751f0	0.11294925
142	0x39ee22da	0.00045420864
143	0xbc860533	-0.016359901
144	0x3d868a34	0.06569329
145	0xbc9db791	-0.01925257
146	0x3d22921e	0.03969013
147	0xbd277844	-0.04088618
148	0x3d0ffcd0	0.03515321
149	0x3cfbcfdd	0.030738765
150	0xbd10aac2	-0.035319097
151	0xbdbccd1a	-0.092188075
152	0xbd42b28a	-0.04753355
153	0xbcb983a7	-0.022645785
154	0x3ac7a870	0.0015232693
155	0xbd00000c	-0.031250045
156	0x3b8c09ac	0.004273614
157	0x3e013d29	0.12620987
158	0xbde0fbe3	-0.109855436
159	0x3b2c7410	0.0026314296
160	0x3d3b8eba	0.04579041
161	0x3d0112d5	0.0315121
162	0xbc23c5ef	-0.0099959215
163	0xbd0ecbbd	-0.03486227
164	0xbd4da34c	-0.05020456
165	0x3db80821	0.089859255
166	0xbc4bb4c4	-0.012433235
167	0xbdede220	-0.116153955
168	0x3d4088fe	0.047005646
169	0x3d677236	0.056505404
170	0xbd2a15c9	-0.041524682
171	0x3dde6937	0.10859912
172	0xbc533f52	-0.012893515
173	0x3de5a7e9	0.11213667
174	0x3c5976ce	0.013272954
175	0x3c819a81	0.015820744
176	0x3cbda5d6	0.023150366
177	0xbdc78793	-0.097426556
178	0xbd207a06	-0.03917887
179	0xb9c434a1	-0.00037423245
180	0x3dafa34b	0.085760675
181	0x3dfdf2d2	0.1239983
182	0x3da4c669	0.08045656
183	0xbd50cc4f	-0.050976094
184	0xbd3ce542	-0.046117075
185	0x3e011918	0.12607229
186	0xbd854744	-0.065077335
187	0xbcdaacd0	-0.026693732
188	0x3d26c825	0.040718216
189	0xbba95043	-0.0051670386
190	0x3d386083	0.045013916
191	0xbc6179e7	-0.013761974
192	0x3e16758e	0.14693281
193	0x3db81380	0.08988094
194	0x3d9e5f3a	0.07733007
195	0xbe358f69	-0.17730488
196	0xbdb14544	-0.086557895
197	0xb9f06c29	-0.00045856953
198	0xbde1b99d	-0.11021731
199	0xbd6f7968	-0.05846539
200	0xbd1101d4	-0.035402134
201	0x3db020ef	0.086000316
202	0xbdb7bf7b	-0.08972069
203	0xbd27d0b7	-0.04097053
204	0x3d8dce76	0.06924145
205	0xbdf83528	-0.12119514
206	0x3d50890d	0.05091195
207	0x3d4339f3	0.047662687
208	0x3c17730f	0.009243741
209	0xbdf0d998	-0.11760253
210	0x3d974229	0.07385666
211	0xbe0c9768	-0.13729632
212	0xbddb0cfa	-0.106958345
213	0x3e0f0943	0.13968377
214	0x3e50f4ec	0.2040593
215	0x3c4f9923	0.012670788
216	0xbda6b59e	-0.081401095
217	0xbda90ecb	-0.08254775
218	0xbdf313be	-0.11869
219	0xbc8ea5ef	-0.017413108
220	0x3d3a3cac	0.045468017
221	0xbd121ea8	-0.035673767
222	0xbc0beeb4	-0.008540798
223	0xbd9f715b	-0.07785293
224	0x3e129063	0.14312892
225	0x3d2281c5	0.03967454
226	0x3ba79b40	0.005114943
227	0x3d62cfab	0.05537383
228	0xbce23c79	-0.027616726
229	0x3da7f280	0.0820055
230	0xbe4f81d2	-0.20264366
231	0xbac2564b	-0.0014826743
232	0xbd3c638e	-0.04599338
233	0xbe2f6aa7	-0.17130528
234	0xbd869dcd	-0.06573067
235	0x3d0ec1c9	0.034852777
236	0xbdd43794	-0.10362163
237	0x3d58816a	0.052857794
238	0x3d90b4ee	0.070657596
239	0xbde9797f	-0.11400127
240	0x3c441be4	0.01196954
241	0x3c5b96de	0.013402669
242	0xbdaaa0b2	-0.083314314
243	0x3dc133d4	0.094337136
244	0x3e07f861	0.13278343
245	0x3e2568e7	0.16153298
246	0x3e1f7160	0.15570593
247	0xbe25a510	-0.16176248
248	0x3dd2869a	0.102795795
249	0x3b893af4	0.004187936
250	0xbe53dbe2	-0.20689347
251	0x3e2c7bb0	0.16844058
252	0x3de8a14a	0.113588884
253	0x3cc54506	0.024080765
254	0xbd8ae0e1	-0.067811735
255	0xbe118bcb	-0.14213483

fc4.bias f4 [6]
0	0x422706fa	41.756813
1	0xc2372728	-45.78824
2	0xc235abcf	-45.41778
3	0x423e4bad	47.573902
4	0x42371e87	45.77981
5	0x42344967	45.071682

fc5.weight f4 [6, 6]
0	0xbd69e6da	-0.057104923
1	0xbf886705	-1.0656439
2	0x3f1e35f9	0.61801106
3	0xbe8a43ba	-0.27004796
4	0xbb3c4311	-0.0028726498
5	0x3d7552b9	0.059893344
6	0x3f699292	0.91239274
7	0xbde1edfe	-0.110317215
8	0x3f02b167	0.51051944
9	0x3f1495c9	0.58041054
10	0xbec8028b	-0.3906444
11	0xbe0516c6	-0.12996969
12	0x3f855a30	1.0418148
13	0xbdf88cea	-0.12136252
14	0x3b6d3d37	0.0036199817
15	0xbe7554a7	-0.23958074
16	0x3f20c82e	0.6280545
17	0xbf73796c	-0.9510715
18	0x4167df44	14.492008
19	0xc1351a26	-11.318884
20	0xc0d0c3eb	-6.523916
21	0x4052d2df	3.2941206
22	0x4055bc84	3.339631
23	0x40b19ffa	5.5507784
24	0x3f20ad03	0.62763995
25	0x3e7b35aa	0.2453219
26	0xbe2775ec	-0.16353577
27	0xbeb63b66	-0.35592192
28	0xbe729ed2	-0.23693398
29	0x3e630b56	0.22172293
30	0xbe9cf408	-0.3065493
31	0xbf0119c0	-0.50429916
32	0xbf38f446	-0.7224773
33	0x3d91d7de	0.071212515
34	0xbec7beb9	-0.39012697
35	0xbec49c26	-0.38400382

fc5.bias f4 [6]
0	0x4043d1bc	3.0596762
1	0x40b18739	5.5477567
2	0x40b88ed2	5.767434
3	0x42313602	44.302742
4	0x4005fe11	2.093632
5	0x4077f437	3.8742807
